Data/checkpoint_actor.pth (torch_old, 86575 bytes, 6 tensors)

fc1.weight f4 [128, 33]
000000 40 3d 11 3e 49 a3 0a 3f 90 42 f2 be 33 62 33 bf
       0.14183521 0.54155403 -0.47316408 -0.70071715
000010 7f 07 ba bd 21 b5 bb 3a 7f 8f 12 bd 7d 81 92 3f
       -0.09083461 0.0014320948 -0.03578138 1.1445767
000020 76 6e 05 be 6a 8c c9 3c 3e bd a4 3e 1f 48 1f 3f
       -0.13030419 0.024603087 0.3217563 0.62219423
000030 e6 85 6e 3e 13 2e 22 be 5f 12 02 40 cd 27 b6 bc
       0.23293266 -0.15837888 2.0323713 -0.022235775
000040 43 cc fe be 22 1e ee be 2f 7c c7 3e d1 ef 94 bd
       -0.49765214 -0.46507365 0.38961932 -0.07272304
000050 be 0d 19 3f 55 33 17 bf 8d 6c 8a be 41 0e 06 3e
       0.59786594 -0.590627 -0.27035943 0.13091375
000060 a5 ba 10 3f f8 11 a8 3d 3a 7d 71 bf 9c 46 b9 3d
       0.56534797 0.08206552 -0.94331706 0.09046671
000070 38 ff 31 3d 51 0f 9c 3d 79 6a 14 3d 4e b4 1e 3d
       0.043456286 0.07620109 0.036234353 0.03874617
000080 ca 18 d3 bf bd 2e f0 3e 9b 86 2f bf ed 4a 39 bd
       -1.649194 0.46910658 -0.68564767 -0.04523747
000090 4e 40 04 3e 0f 11 60 bd 35 70 ac 3b a3 a1 32 be
       0.12915155 -0.05470377 0.0052623996 -0.17444472
0000a0 f4 c2 10 3d ef ee fc bd 7e 2f 74 bf da 96 6d bd
       0.03534217 -0.123502605 -0.9538497 -0.05800519
0000b0 4c 6e 9d bc 64 43 41 bf 35 4b 12 3c f9 9e 94 3f
       -0.019217633 -0.75493455 0.008929064 1.1611015
0000c0 79 07 12 bd c6 03 8d be 8f 4b 85 3e 30 f5 84 bd
       -0.035651658 -0.2754194 0.2603421 -0.06492078
0000d0 b8 37 dd be 08 fe f6 3e 4b 29 8d be 7b 6b df 3e
       -0.43206573 0.48240685 -0.27570567 0.4363669
0000e0 fc 7b b3 be 0c 39 33 3f e3 bf b8 be 4b 27 36 3f
       -0.3505553 0.7000892 -0.36083898 0.71153706
0000f0 62 86 f4 be c5 49 7d bc aa 4c 41 3d 8d f5 1a 3f
       -0.47758776 -0.015459483 0.047192253 0.6053093
000100 70 b8 73 bc 26 69 e0 bf 79 b2 20 be d2 8d cb bc
       -0.014875516 -1.7532089 -0.15693082 -0.024847899
000110 49 09 05 bf f2 33 cf bd e3 cd 68 3e c1 31 90 be
       -0.51967293 -0.1011733 0.2273479 -0.2816296
000120 68 e4 81 3e 7d e6 60 3d b9 85 76 bf 5b f1 1c bf
       0.25369573 0.05490731 -0.96297795 -0.6130578
000130 7c 77 c6 be c0 5c 33 bf 28 b6 d4 3e af b3 67 3f
       -0.38763034 -0.700634 0.41545224 0.9050855
000140 1f 5a 6d bf 24 1b 90 3d a3 fa 87 be 69 0d ed be
       -0.9271564 0.07036427 -0.26558408 -0.46299294
000150 66 a3 93 3e 8e 52 84 3e a2 a2 72 3e d5 c3 fd be
       0.288356 0.25844234 0.23694852 -0.4956347
000160 78 13 87 be 20 52 0e 3f 46 61 a6 3e 19 8a 5a 3d
       -0.2638204 0.5559406 0.3249609 0.053354356
000170 eb 27 fa be 8b ac a7 3e 3c c4 4e 3e 9e d8 1f 3d
       -0.4885858 0.32748827 0.20192045 0.03902494
000180 c1 92 89 be 84 e7 a7 3c 35 01 2e 40 f3 db 6c be
       -0.26869777 0.020496137 2.7188237 -0.23130779
000190 f5 b0 a4 3d d7 07 17 3f b6 3f 35 be b5 8e cf bd
       0.080415644 0.5899634 -0.17700085 -0.10134641
0001a0 6b 69 c0 bd 81 7d 0c 3e 77 8c b6 bd f4 9a 70 3e
       -0.09395107 0.13719751 -0.0891351 0.2349661
0001b0 dc 99 ab 3d 4e 53 db be d7 38 13 be 8f 88 b2 be
       0.08378956 -0.42836994 -0.14377151 -0.3486981
0001c0 09 d3 b3 be 16 d8 9d bf ff f5 ab 3d d4 35 a5 3e
       -0.35121945 -1.2331569 0.083965294 0.3226763
0001d0 52 18 2c 3e 5f 22 01 bf 87 36 16 3e 6c 26 07 bc
       0.16806152 -0.5044307 0.14669238 -0.008248907
0001e0 60 7d f1 3e 97 23 16 3e fc 43 08 3f 5a da 5f bf
       0.47165966 0.14662014 0.53228736 -0.87442553
0001f0 51 a8 aa be 40 9b 8c bf ef 51 ad 3e 78 c1 25 3d
       -0.3333154 -1.0984879 0.33851573 0.04046771
000200 ce fe 78 3d 10 4b b1 be e8 3f 56 bd 33 d9 14 40
       0.060789876 -0.3462758 -0.05230704 2.3257568
000210 da 3e af be 66 d7 30 3f a3 d3 31 3d af 66 ef 3d
       -0.3422764 0.6907867 0.043414723 0.11689507
000220 72 a3 87 3c ca 34 34 be 12 95 c9 3e 63 bd 7e 3e
       0.016557429 -0.17598262 0.39371544 0.24876933
000230 ac 14 3d 3d 2c ab 4d 3f e2 20 84 be 5f b3 a7 bd
       0.046162292 0.8033931 -0.25806338 -0.08188509
000240 be e8 b9 be 75 79 c2 3e 51 53 0b bf 51 64 c1 be
       -0.3631038 0.3798329 -0.54424006 -0.37771848
000250 35 fa 21 bd 13 e0 a1 bd 66 fe df be 3f 13 9e bc
       -0.039545257 -0.07904067 -0.43748778 -0.019296287
000260 43 be 1f 3e 79 7f 03 3f dc f6 e9 3e 06 9b b4 3d
       0.15599923 0.5136638 0.4569615 0.08818631
000270 dc f0 3e be c6 d0 82 3d 27 f7 bc 3e b3 bf 6d be
       -0.18646568 0.063874766 0.36907312 -0.23217659
000280 41 64 c0 be aa 6c 55 3d c2 5b 58 3e 6f 6c 67 bd
       -0.37576488 0.052105583 0.21128753 -0.056499895
000290 46 8b b5 40 00 32 5a 3d b3 2c 4a bf ff 2d 8d be
       5.673251 0.05327034 -0.78974456 -0.27574155
0002a0 17 63 5a be 24 a1 02 3f ea 29 ca bd d5 8a 27 3f
       -0.21326862 0.5102713 -0.09871276 0.65446216
0002b0 7c 3e fc 3e 4b 30 d8 bd 55 c7 ff be 9d b5 47 3e
       0.49266422 -0.10556086 -0.49956766 0.19502874
0002c0 44 b5 84 be a5 5e f4 be a4 eb 4a be 68 61 49 3f
       -0.25919545 -0.47728458 -0.19816452 0.78664255
0002d0 80 94 43 3f ec ab 88 bf aa be b0 be 96 fe ce 3d
       0.7639847 -1.0677466 -0.34520465 0.10107152
0002e0 d0 d0 bb 3e 10 87 d2 3e 0d 0c 09 3f 25 f2 b6 be
       0.3668275 0.4111867 0.53534013 -0.35731617
0002f0 64 06 ea be 47 28 fa 3d 19 c8 6e be 22 b9 b3 bf
       -0.45708 0.122147135 -0.23318519 -1.4040873
000300 b4 fb 12 be 60 9a a6 be ff 36 57 bd d8 b5 5c 3e
       -0.1435383 -0.32539654 -0.052542683 0.21553743
000310 fa ab 6c bd 7d be 3b c0 11 77 5c bd b6 84 84 be
       -0.057781197 -2.9335015 -0.053824488 -0.258825
000320 7f 56 70 3d ec f8 c5 be 43 3b 71 3d 47 90 a1 bd
       0.05867624 -0.38666475 0.058894407 -0.07888847
000330 b7 c4 d7 3e e4 12 82 3f 92 83 ac bf 59 1b 8d be
       0.4214227 1.0162015 -1.3477652 -0.27559927
000340 58 9e 17 bd 56 5d d2 be c8 81 09 3f ce b6 87 3f
       -0.037016243 -0.41086835 0.53713655 1.0602663
000350 79 1a b3 bf c3 00 d6 3d 4d 65 2d 3d 7d 78 a9 be
       -1.3992454 0.10449364 0.042332936 -0.33099738
000360 64 cb 7d be a7 65 84 be b4 64 a3 3d 14 67 46 3e
       -0.24784619 -0.25858805 0.07978192 0.19375259
000370 35 47 0b bf 30 36 36 3f 9f 75 9e 3d dd e0 d9 3e
       -0.5440553 0.71176434 0.07737278 0.4255437
000380 71 c4 f3 be 4c 64 08 3e 75 a3 87 bd 39 ef b0 bd
       -0.4761081 0.1331951 -0.06622974 -0.08639378
000390 bf fc ed bd ef d5 9f 3d f0 23 1e 40 bb d6 62 be
       -0.11620473 0.078044765 2.4709435 -0.22152226
0003a0 ba 24 d3 3d 33 ab 9d be 31 0e 79 3d 2e 4f f3 be
       0.103097394 -0.30794677 0.06080455 -0.47521347
0003b0 fc d9 99 bc 00 36 3b 3e 24 79 3c bf 25 43 23 3f
       -0.0187807 0.18282318 -0.73622346 0.6377433
0003c0 49 9b 7b 3f 44 e3 0b bf e0 3b 73 3b b3 ef 14 3c
       0.9828382 -0.54643655 0.0037114546 0.009090352
0003d0 a9 c7 13 bf 32 85 02 bf 50 e5 b7 be b2 f6 cc be
       -0.5772653 -0.5098449 -0.3591714 -0.40031964
0003e0 27 3f e5 3d 2d df ef be b2 6e ae be 8c bb f0 3e
       0.11193686 -0.46849957 -0.3406883 0.47018087
0003f0 45 61 2d 3f 5d 1e 61 bd fe f4 48 bf 8a 74 71 bf
       0.67726547 -0.054960597 -0.7849883 -0.9431845

fc1.bias f4 [128]
000000 5d ae 0e be 60 94 19 3f 28 0e fc be 5a 24 c1 be
       -0.13933702 0.5999203 -0.4922955 -0.37723047
000010 fd 66 76 3e 7b 5a 5b 3e 80 7d 83 be 28 28 97 bd
       0.24062724 0.21421234 -0.25681686 -0.07380706
000020 61 b7 e3 bd b5 45 91 3e b2 37 e4 bd 3d 75 ca 3d
       -0.11118961 0.28373495 -0.111434355 0.09885643
000030 4b 8c bb bb 81 78 8b 3e 97 71 3e be 75 3d 99 bd
       -0.0057235113 0.27240375 -0.18598019 -0.07482425
000040 f5 1b d0 bb 00 01 aa bd 61 d7 1d 3d ba 1e fa bd
       -0.006350989 -0.08300972 0.03853548 -0.12212892
000050 9f a4 1e bf ff 7b 96 be 51 36 5e 3e 83 c1 bf bd
       -0.6196994 -0.29391477 0.21700408 -0.09363081
000060 e6 1b 01 3f df 04 00 be d5 ef 71 be 03 a0 a9 be
       0.50433195 -0.12501858 -0.23626645 -0.33129892
000070 c9 b3 87 be a3 34 74 3d 9b 4a c9 be 37 57 eb bd
       -0.26504353 0.05962051 -0.39314732 -0.11491244
000080 c4 09 b5 bd b5 59 99 be b9 cd bd be 7b 27 86 be
       -0.08839753 -0.29951254 -0.37071016 -0.26201996
000090 dc d5 4b be 11 be b3 3e 1b 78 84 be 88 f0 4e bd
       -0.199058 0.35105947 -0.25872883 -0.050522357
0000a0 56 c1 f5 3e c1 75 66 be a5 00 63 bc 1b f8 23 3d
       0.47999066 -0.22505857 -0.013855134 0.040031534
0000b0 48 4c 4c bd 90 38 0f 3f 9f 68 78 3e e1 83 83 3e
       -0.049877435 0.5594568 0.2425866 0.25686553
0000c0 6d 23 a0 3d cc ab 14 bf a1 21 62 be 06 e2 43 be
       0.07819257 -0.5807464 -0.22083141 -0.1912919
0000d0 1f 18 37 be 13 67 4c be 00 b8 f6 be 2a af c0 3d
       -0.17880295 -0.19961195 -0.48187256 0.0940841
0000e0 9d 34 37 be 9f ab 8c 3e db fd a2 3d 0b d7 38 be
       -0.17891164 0.27474687 0.07958575 -0.18050782
0000f0 47 1d ba bd 59 4e 00 3e 31 21 60 bd 26 3e b7 be
       -0.090876155 0.12529887 -0.054719154 -0.35789603
000100 31 dd d3 be 54 9a 95 bd e9 0c 33 3d c6 61 8a be
       -0.41379693 -0.073048264 0.043713484 -0.2702772
000110 09 d5 08 bf 4b f9 2a bd 2e 78 5f 3e d6 7a 93 bd
       -0.53450066 -0.04174165 0.21823189 -0.072011635
000120 0b 0e f3 3e 12 34 cb 3e 9a db 73 be 56 ff 58 be
       0.4747165 0.39688164 -0.2381424 -0.21191153
000130 d6 19 22 be 8c 73 c2 be ff 44 d8 be 84 20 18 bc
       -0.15830168 -0.3797878 -0.4224014 -0.009285096
000140 10 f9 4b bc 64 e4 ba 3e 4c c2 1a 3d 1f 3a 0f bf
       -0.012449518 0.36502373 0.037782952 -0.5594806
000150 06 b2 3a be b4 5e 37 3e 02 35 11 be 52 d9 38 bf
       -0.18231973 0.1790722 -0.14180377 -0.72206604
000160 9b b9 23 3c 82 52 cb be 9e d0 0c be 12 e7 1a bd
       0.009992982 -0.39711386 -0.13751456 -0.037818022
000170 c4 04 64 be 35 63 c1 be 84 e3 f2 bd 27 ee a0 be
       -0.22267443 -0.37771 -0.118598014 -0.31431696
000180 7f 59 00 bf 64 07 82 be e8 43 b7 3d 8e bb 4a 3e
       -0.5013656 -0.25396264 0.08948499 0.19798109
000190 3f 9d 19 3f ab 3f 42 3e 17 50 a7 be 8c 41 8e be
       0.60005563 0.189696 -0.3267829 -0.27784383
0001a0 ba b3 97 be 3b 29 c1 3e 26 e7 0a be bb 4d c7 3e
       -0.29629308 0.3772677 -0.13564739 0.3892649
0001b0 f0 8e d8 3d 53 54 3d bf 14 1a b0 be 00 55 5b be
       0.10574138 -0.73956794 -0.34394896 -0.21419144
0001c0 de 72 53 bf e1 19 b2 be 86 5a 4d 3e 3f f4 1d 3d
       -0.8259715 -0.3478537 0.20054063 0.03856301
0001d0 24 59 77 3e 07 03 b5 3e 34 19 14 bd de d2 b2 3d
       0.24155098 0.35353872 -0.036156848 0.08731626
0001e0 d4 62 8e be 8a 45 af bc 43 e3 45 3e 06 3b cf be
       -0.27809775 -0.021395463 0.19324975 -0.4047472
0001f0 59 c8 6d be a1 41 1d bd 47 1c 4c 3d b9 a1 02 be
       -0.23220958 -0.038392667 0.049831655 -0.12757005

fc2.weight f4 [128, 128]
000000 83 69 41 3e 78 5f 18 bf 5d 8f 54 3e 55 58 de be
       0.18887906 -0.59520674 0.20757814 -0.43426767
000010 30 b7 9c bf 95 43 84 3f b9 71 f3 3d 83 76 aa be
       -1.2243404 1.0333124 0.11886925 -0.33293542
000020 5b 84 1e 3f e7 d1 4d 3e f0 d4 88 be 97 a9 dc bd
       0.6192071 0.20099603 -0.26724958 -0.10774534
000030 0b 08 03 3f 6c 4f 08 bd 18 cd d0 be d2 c3 26 3e
       0.5118415 -0.033278868 -0.40781474 0.16285637
000040 9f de a3 3e ef 3f 80 be 32 bb 64 bf 6b 98 c7 3e
       0.32005784 -0.25048777 -0.8934814 0.38983473
000050 e8 ef 3c 3f a2 dc 73 3f cb 4c 15 3c 52 cc 1f 3e
       0.7380357 0.95258534 0.009112547 0.15605286
000060 7b 0c 45 be 7f 8d cf be 28 56 4a bf 90 fb 1e bf
       -0.19243042 -0.4053764 -0.79037714 -0.62102604
000070 b5 ba 53 3f 1d 35 6f be c7 f5 39 3f 11 9c a5 3e
       0.8270677 -0.23360105 0.7264065 0.32345632
000080 ab d3 36 3d 64 8f 82 3d f9 81 9e bf bb a8 0e 3f
       0.044635456 0.06375006 -1.2383415 0.5572621
000090 4d 70 50 3e 3a b8 37 3e 68 1f 4b be a4 5b 11 be
       0.2035534 0.1794137 -0.198362 -0.14195114
0000a0 f2 3b 1c 3f de ae f5 3d c0 99 9a bb bd 78 af 3e
       0.6102897 0.11996244 -0.0047180355 0.34271803
0000b0 b5 c9 58 3f 47 09 38 3f ae 18 a9 3e 50 69 28 3f
       0.8468278 0.71889156 0.33026642 0.65785694
0000c0 b5 a3 d6 3e fe c9 1f bf cf c6 99 3d c5 8f cb bd
       0.41921774 -0.6241759 0.07508623 -0.09939531
0000d0 3a 96 28 3d 74 1f 44 3f f2 2b ba 3d 57 09 41 3f
       0.041158892 0.76610494 0.09090413 0.75404876
0000e0 b1 75 6a 3f 24 86 06 bf 26 34 ca 3e 96 df 6f 3f
       0.9158583 -0.5254843 0.3949291 0.9370054
0000f0 26 fc 91 be d0 6a 21 3c de 6c 89 3e ec 1e 17 bf
       -0.28512686 0.009852126 0.26840872 -0.5903156
000100 51 ce 2b 3e 35 2f 84 bd 06 0f 1e be 5f ca 7e 3f
       0.16777922 -0.064543165 -0.15435418 0.99527544
000110 05 8c 69 be ff 15 95 3e db 5d f2 bc 32 8a 87 3f
       -0.2280732 0.29118344 -0.02958577 1.0589049
000120 41 52 e8 be 81 b4 7c 3f b8 cb b5 be 32 85 11 bf
       -0.45375255 0.9871293 -0.35506988 -0.56843865
000130 ea 82 54 bf 7f 1e c9 3e 3f 93 56 bf c6 5a 42 be
       -0.8301226 0.3928108 -0.8381843 -0.1897994
000140 7f cc 17 3f 2a 6a 10 3e 27 0e 56 3e 93 f7 d8 3f
       0.5929641 0.14102998 0.20903836 1.6950554
000150 df 55 36 3e d3 fd 72 ba 20 ba 0d 3e 2b 74 9d be
       0.17806195 -0.000926939 0.13840532 -0.30752692
000160 f4 c5 ec be 18 de c6 bf 56 5d 0b 3f 80 0b 55 3e
       -0.46244776 -1.5536528 0.54439294 0.20805168
000170 bb 7a f5 bb c4 1e 47 be ed 2b 56 3e f4 96 5b be
       -0.0074914373 -0.1944533 0.20915194 -0.21444303
000180 fc ce a9 be 9a 06 1e bf 11 f8 37 bd c3 0e 59 3f
       -0.3316573 -0.61728823 -0.04491431 0.8478815
000190 c9 cf 0b bf 06 ef 98 3f c2 36 01 3f 20 e6 d7 be
       -0.5461393 1.1947944 0.5047418 -0.4216776
0001a0 22 9d 9d bc d7 47 8a be d1 a7 ea be 9e 7d f9 3d
       -0.019239966 -0.27007934 -0.4583116 0.12182163
0001b0 14 74 2b 3e 8b d3 9d be 05 72 7b bf 2c ae 3e bf
       0.16743499 -0.30825457 -0.98220855 -0.74484515
0001c0 37 f5 95 3e 9a 6d a6 bf 1e 6b 44 3f ce d4 7d be
       0.29288647 -1.3002198 0.7672595 -0.2478821
0001d0 0f 0f b5 3d ce 0f ad 3f 65 4b ea bc 36 8c eb be
       0.08840763 1.3520448 -0.028600404 -0.4600541
0001e0 c2 56 81 3e f6 cd 80 3f 4c eb 86 be 60 ee 2d 3e
       0.25261503 1.0062854 -0.26351392 0.16985464
0001f0 4f e2 9f bf ec cc 8e bf 54 dc 07 3d aa ae 2f bf
       -1.2490939 -1.1156287 0.033169106 -0.6862589
000200 22 05 d5 be d5 f3 ee be 1e 27 f9 be 1a 4a e6 be
       -0.4160548 -0.46670404 -0.48662657 -0.4497841
000210 b5 87 19 bf c7 06 c3 bd 27 60 b7 be 66 f7 ec 3b
       -0.599727 -0.09522777 -0.35815546 0.0072316406
000220 f5 7f 1e 3f 69 c3 65 bf 81 51 11 3f 72 d3 16 3f
       0.61913997 -0.897513 0.5676499 0.5891639
000230 54 05 c2 3d fc 64 91 3e de e8 d9 be 79 09 a3 be
       0.094736725 0.28397357 -0.42560476 -0.31843165
000240 94 e9 85 3f 03 81 67 be 22 28 83 bf 39 69 18 3f
       1.0461907 -0.22607808 -1.0246623 0.5953556
000250 c3 2b 61 3f bd 72 a4 3f e4 fd e0 3e da 92 46 3f
       0.879574 1.2847515 0.43943703 0.7756783
000260 7f 62 da be 2b f7 2b 3e 25 e9 16 3d ad c2 75 bf
       -0.42653272 0.16793506 0.036843438 -0.96000177
000270 7a 93 0e 3f b1 07 7b bf ea e2 41 3f 4a 34 68 3f
       0.5569378 -0.9805861 0.7573687 0.90704787
000280 a9 97 12 bd 9f 3a 0d bf 8f f2 00 c0 74 56 df bd
       -0.035789166 -0.55167574 -2.0148046 -0.109051615
000290 67 5a 30 3f a6 5d de 3e 70 25 ec 3e 02 68 95 be
       0.68887943 0.43430823 0.46122313 -0.29180914
0002a0 78 ae 87 bc 08 9c 5a be af a0 11 3d 9e 91 2a be
       -0.016562685 -0.21348584 0.03555363 -0.16657111
0002b0 49 5b 3f 3f a8 40 85 3e 73 e6 ff bd fa 9e 13 bf
       0.74748665 0.2602589 -0.124951266 -0.57664454
0002c0 c0 2b 46 bc df 2b 17 3e 33 89 09 be 06 47 31 be
       -0.012095392 0.14762829 -0.13431244 -0.1731225
0002d0 5c 56 5d be 59 97 07 3e da 02 04 bf 60 96 a5 ba
       -0.21614975 0.13241328 -0.5156685 -0.0012633316
0002e0 a5 4c 42 3f 76 a4 27 bf fb 47 82 be c2 27 52 3d
       0.758982 -0.6548532 -0.25445542 0.051307447
0002f0 39 a4 fd be de d2 c7 3e 1d 2a b9 3e 3c 50 30 bf
       -0.49539354 0.39028066 0.36164942 -0.6887243
000300 80 8a 95 be 1f f8 c1 3d 56 03 dc 3e 74 14 1b 3f
       -0.2920723 0.094711535 0.42971295 0.60578084
000310 de 6e 0c 3e 2b b1 33 ba 3d 34 59 be 1f 56 00 bf
       0.13714167 -0.0006854708 -0.21211334 -0.5013141
000320 6a a3 3d be 91 30 88 3f 3d f9 bd be 5c c7 01 bf
       -0.18519369 1.0639821 -0.37104216 -0.50694823
000330 7b 24 77 be dd 7e cb 3d a5 ce c4 bd 86 b0 0c bf
       -0.2413501 0.099363066 -0.09609727 -0.54956853
000340 c1 ea e8 3e d0 31 4f bf cc 0e 19 3f 61 ef 94 3f
       0.45491603 -0.8093538 0.59788203 1.1635553
000350 b4 46 d0 3e cf db 89 3e b0 45 24 3f 79 6b b5 3d
       0.40678942 0.26925513 0.64168835 0.088583894
000360 c7 c8 94 bf be e5 df bf 54 08 83 be 7c d8 32 3e
       -1.1623772 -1.7491987 -0.2559229 0.17465395
000370 06 33 bc be 31 36 01 bf c9 49 bf be 74 73 a0 be
       -0.36757678 -0.50473315 -0.3736098 -0.31338084
000380 e3 b3 bb 3e fe 0c 23 bf 14 e3 b6 be ec a9 41 3f
       0.3666068 -0.636917 -0.35720122 0.75649905
000390 02 99 a0 bf 37 75 8b 3f 1d b2 48 3f 30 9a 13 bf
       -1.2546694 1.0895146 0.7839678 -0.57657146
0003a0 50 08 ac be 91 3c a6 be 09 50 b8 be a1 5d 43 3f
       -0.33600092 -0.32468084 -0.35998562 0.7631474
0003b0 4b c4 08 bf 3f 1a 4a 3f f5 62 cc be 96 af b6 3e
       -0.5342452 0.789463 -0.39919248 0.35680836
0003c0 7a 99 4d 3e e3 1c f3 bf 4e 2f 38 3e 49 b6 21 3e
       0.20078078 -1.899319 0.17986795 0.15792193
0003d0 f6 ce 49 3f 76 e2 98 3e 14 8d 4d 3e 7f 10 16 bf
       0.7883142 0.29860276 0.20073348 -0.5861892
0003e0 4f 34 0f 3f 6c da f6 bd 6e ef 97 bf aa 9a c4 3e
       0.5593919 -0.120533794 -1.1869943 0.3839925
0003f0 70 7e 46 bd 0f 33 a4 be 45 42 6e 3d 56 d9 18 bf
       -0.048460424 -0.32070205 0.05816867 -0.5970663

fc2.bias f4 [128]
000000 59 86 d4 be f4 2c d8 be 18 3f 39 bd ea 72 2f 3e
       -0.4150875 -0.42221797 -0.045226187 0.1713368
000010 7b cf 09 bf b8 d9 8c be 30 a0 84 be 51 28 5d bc
       -0.53832215 -0.27509856 -0.25903463 -0.013498382
000020 c8 b2 fa bd c7 69 13 3e fe cc 36 bf ab e8 8b be
       -0.12241131 0.1439582 -0.71406543 -0.2732595
000030 7c 9a 30 3e 30 67 34 bf 5f e1 06 3d b8 ca ea bd
       0.17246431 -0.7046995 0.032929774 -0.11464447
000040 e4 33 1d bf f1 ff a3 be 15 d3 dd 3d 4f 27 29 bd
       -0.61407304 -0.32031205 0.10831276 -0.041297253
000050 2e 36 c9 3d ff a2 67 3c 14 a1 f0 bb 00 34 94 be
       0.09824787 0.014137982 -0.0073434208 -0.28945923
000060 48 ab 57 3d df 07 27 be 4d 93 7e 3d ca 35 c2 3e
       0.05265358 -0.16311596 0.062152196 0.37931663
000070 19 8e 6f be 1f 42 63 bd 23 00 b7 bd a1 3a 19 be
       -0.2339405 -0.05548298 -0.08935573 -0.14963771
000080 38 94 0a bc 7e d5 ab bd 86 ff 35 3e 47 55 80 3e
       -0.00845819 -0.0839033 0.17773256 0.2506506
000090 cc 92 83 3e aa 79 80 be 70 d1 3c be 5b 50 dd be
       0.25697935 -0.25092822 -0.18439269 -0.4322537
0000a0 bc 32 4b 3e 1b a3 5c be 57 31 e2 be e0 d7 eb 3b
       0.19843572 -0.21546595 -0.44178268 0.007197365
0000b0 6a a8 9c bc ef dc 8e be fc ab 8e 3e 13 4e c2 3e
       -0.019123275 -0.27902934 0.2786559 0.3795019
0000c0 7a 07 93 3e e6 ac 11 bf 5f 5f 50 bc 36 37 30 3c
       0.28716642 -0.5690445 -0.012718051 0.010755351
0000d0 1d c5 1d be ed b9 21 3f e6 7d 7b 3e 95 62 ed 3e
       -0.15407224 0.63174325 0.24559745 0.46364275
0000e0 2d 5b 1f 3d 03 65 32 bf a6 97 79 be 86 4a 9f 3e
       0.03890531 -0.6968538 -0.24374256 0.31111544
0000f0 30 dd 2a bf 47 e5 13 bf 1e a4 16 3e ce 60 77 be
       -0.66743755 -0.57771724 0.14711043 -0.24158022
000100 e2 3c 67 be 8e fa d2 bd b2 44 b7 bd 74 f5 f2 bc
       -0.22581819 -0.10301696 -0.089486495 -0.029658057
000110 b9 fb ce 3e 7b 1c 00 3e 23 ba 68 bd 15 9e 52 3e
       0.40426424 0.12510864 -0.05681814 0.20568116
000120 b2 29 96 bd 86 45 6c bf 66 57 21 3e 52 67 ee 3e
       -0.073321715 -0.92293584 0.15755996 0.46563202
000130 a7 06 4e bf 08 2e 54 be 2c 12 ad be 98 9a 0f 3e
       -0.804789 -0.20720685 -0.33802927 0.14023817
000140 f8 86 4c be ee e8 1a 3e 71 51 3c bd 95 10 9b 3e
       -0.19973361 0.15127918 -0.045976106 0.3028609
000150 82 ba f0 be aa a9 31 3e 3b d4 b3 bd cf 60 6b be
       -0.47017294 0.17349878 -0.08780714 -0.22986148
000160 9c fe 5e 3d f2 73 e2 3c 23 d1 e2 3d 13 d7 8f 3e
       0.054442033 0.027643178 0.11075046 0.28093776
000170 96 cf f6 3e 8d 97 f3 3d e9 52 08 3e 4e 83 00 bd
       0.4820525 0.118941404 0.13312878 -0.031375222
000180 d6 da c5 3e 7c c0 95 be 46 ec db bd e3 c9 02 3e
       0.3864352 -0.29248416 -0.10738425 0.12772326
000190 6d 9e e6 bd 4e 21 e1 3b 6b 24 04 bf d1 ff 75 bd
       -0.11260686 0.0068704253 -0.5161807 -0.06005842
0001a0 f2 f3 63 ba 53 a0 a3 3e 7c 88 3a be c4 8c 9b bd
       -0.00086957135 0.31958255 -0.18216127 -0.07595208
0001b0 d0 68 93 3d 4d a1 f9 3e 12 6c f6 be 04 9b 00 bf
       0.07197726 0.48755875 -0.48129326 -0.50236535
0001c0 7f 85 90 3e 7c 7b b5 be af b6 fa 3d 18 6a dc 3e
       0.2822685 -0.35445774 0.122418754 0.43049693
0001d0 b5 bd ed 3d a6 5f b4 be 3f f8 64 3e f1 eb a5 3e
       0.11608449 -0.35229224 0.22360323 0.32406572
0001e0 61 5c 23 3f f4 b4 0f 3f e4 57 70 be 9f cb 99 bd
       0.63812834 0.5613549 -0.23471028 -0.07509541
0001f0 67 b0 b5 3d 63 99 cc be 30 4c d6 be 5d 21 43 3d
       0.08871537 -0.39960775 -0.41855 0.04763924

fc3.weight f4 [4, 128]
000000 5b 21 4b bf 09 14 64 3e 4a d7 b8 3f 1c 85 50 be
       -0.7934777 0.22273268 1.4440701 -0.20363277
000010 59 1a d7 bf 66 ab 92 3d 58 bd 5d bf dc 02 b5 bf
       -1.6804916 0.07161598 -0.8661704 -1.4141498
000020 61 12 8a 3e f1 40 65 bf 78 4c 4a 3f 47 77 fb be
       0.26967147 -0.8955222 0.7902293 -0.4911444
000030 25 fe cc 3f 8e 4c 59 3e b3 f8 9d bd e9 d6 ee 3f
       1.6015059 0.2122061 -0.07713451 1.8659335
000040 7b 45 ce bf 03 e8 ea be f8 f3 9d bf e0 67 45 bf
       -1.6114954 -0.45880136 -1.2340078 -0.77111626
000050 2b 6a dc 3f 1d 66 a5 3e 60 91 94 bf a5 31 45 3f
       1.72199 0.3230447 -1.1606865 0.77028877
000060 3d d6 c1 3f 12 91 89 3e e2 63 9a be fb e7 9d be
       1.5143505 0.26868492 -0.3015433 -0.3084105
000070 f7 bf 26 be 68 a6 a7 3f b4 03 80 3c 86 fa 34 be
       -0.16284166 1.3097658 0.015626766 -0.17673692
000080 cf a7 9a 3f 87 cc 92 bc 7d a8 5f 3e d9 a6 bf bf
       1.2082461 -0.017919792 0.21841617 -1.4972793
000090 e7 c7 03 3e 05 94 c2 3e 1d 1d 85 3f a3 d4 cd 3f
       0.12869225 0.38003555 1.039951 1.6080517
0000a0 ad 6a 96 bc fe e3 6e 3f c4 ce 3e c0 5f 2b b8 bf
       -0.018361414 0.9331664 -2.98137 -1.4388236
0000b0 54 4e 50 3d 25 c4 b0 bf 1b de d7 bf b5 34 cb 3f
       0.05085595 -1.3809859 -1.6864656 1.587546
0000c0 42 2c 3b 3f 72 8c 9b be 2f 64 94 3f 9e 7f 1e be
       0.7311441 -0.3038059 1.1593074 -0.1547837
0000d0 db 4b a6 3f e3 42 08 bf f9 be 1b 3f 2b 70 89 3e
       1.2991899 -0.5322706 0.60838276 0.2684339
0000e0 00 2b d6 3f 2c 2a 0f 3f f0 9f 9f 3f db e8 b0 bd
       1.6731873 0.55923724 1.2470684 -0.08638164
0000f0 a7 c5 8d be 58 5a 3c bf 4e e6 ef be 65 20 dc 3f
       -0.2768986 -0.73575354 -0.46855396 1.7197386
000100 b4 2a 8d 3f e6 dc 04 40 d5 a0 87 bf a2 5e 87 be
       1.1028657 2.0759826 -1.0595957 -0.26439387
000110 24 0a 0f 40 e7 5b 77 3e c7 f2 54 3e a8 1a ab bf
       2.234994 0.24156152 0.20795737 -1.336751
000120 84 26 0a be 25 a3 50 bf 65 86 a9 3f 5f 51 9f 3f
       -0.13491255 -0.8149894 1.3244139 1.2446707
000130 5c 04 62 bf d7 97 38 bf ab 9c cc 3e 3e 30 c8 bf
       -0.882879 -0.7210669 0.39963278 -1.5639722
000140 15 e1 bd 3f d7 c1 c9 bf 05 89 d9 3f 1e bd e9 3f
       1.4834315 -1.576228 1.699494 1.8260839
000150 fd 23 86 3f 8b c4 0b 40 cb a2 dd 3f 3c ba 26 3e
       1.0479733 2.183871 1.7315305 0.1628198
000160 4a 22 67 3e 00 23 13 bf 4a d9 bc 3f b7 18 54 be
       0.22571674 -0.5747528 1.4753811 -0.20712553
000170 d1 77 06 3e 93 49 a3 bd c7 a5 e9 3e e8 8d e6 3f
       0.13131644 -0.079730175 0.4563429 1.8012056
000180 be 10 2e bf ff 3d a3 bf 29 45 e2 3f 6d 76 56 be
       -0.67994297 -1.2753295 1.7677356 -0.20943613
000190 f8 45 98 bf 93 c4 e9 3f 8b 8f bc be d1 53 f9 be
       -1.1896353 1.8263115 -0.36828265 -0.4869676
0001a0 63 b8 b4 bd f8 5d c1 3f 8e 83 bc 3f 00 fd 8b bf
       -0.088242315 1.5106802 1.4727647 -1.0936584
0001b0 12 cd b7 3f ea 7d 93 bd 9c e5 5b bf ad 7b 82 be
       1.4359457 -0.072017506 -0.8589723 -0.25484982
0001c0 2b ac d3 bf f9 c4 b5 3f af 85 c7 3f e6 de bd bf
       -1.6536916 1.4200736 1.5587672 -1.4833648
0001d0 44 12 f7 3f 11 32 39 bf 40 67 01 c0 77 3f be 3f
       1.9302449 -0.7234202 -2.0219269 1.4863118
0001e0 68 17 b8 3f bb 46 a6 3f 6d c3 59 be bf d0 07 c0
       1.4382143 1.2990335 -0.21265955 -2.1221159
0001f0 92 a6 f3 3d 12 46 b8 be a6 7c 0b be 3f 0d cc 3f
       0.11897005 -0.3599096 -0.13621768 1.5941542
000200 6c 3c 25 3d 8d ad 95 3d bb 2b 50 3d 39 31 5e 3d
       0.040340826 0.07308493 0.050822955 0.05424616
000210 ee 54 07 3e 4e e8 d2 3d dc 6b 2d 3d 87 31 e6 3c
       0.13215992 0.10298215 0.04233919 0.028099788
000220 51 62 22 3d 97 a1 91 3d a7 29 b7 3c 4d 9b d1 3d
       0.039644543 0.07110899 0.022358729 0.102346994
000230 e9 d2 f3 3d 50 24 ff 3c a4 a6 90 3d 18 be 8e 3d
       0.11905462 0.031145245 0.07063034 0.06969851
000240 85 53 b9 3d 9e 91 d9 3d 59 39 5d 3d 2f a7 b3 3d
       0.09049133 0.106234774 0.05400977 0.08772122
000250 5d 06 b6 3d 7f 30 c9 3c 43 7f 05 3d a5 f6 0d 3d
       0.088879324 0.024559258 0.03259207 0.034659047
000260 75 75 b1 3d b3 8f 01 3e 43 a3 38 3d 76 67 24 3e
       0.08664981 0.12652473 0.045077574 0.16055092
000270 03 2b c3 3d 1c 3d 30 3d cb de 8b 3d 84 a7 03 3e
       0.09529688 0.04302703 0.06829604 0.12856871
000280 a1 5a 58 3d 30 99 ce 3c 17 3c 22 3d c6 11 21 3d
       0.052820805 0.02521953 0.039608087 0.03932359
000290 56 84 dd 3c ff cd fe 3c 36 24 53 3d 11 30 c3 3d
       0.027040642 0.031104086 0.051548205 0.09530652
0002a0 a1 00 e8 3c 30 c1 fd 3d c0 db b1 3d c1 cd 90 3d
       0.028320612 0.12390363 0.08684492 0.070704944
0002b0 42 4c 12 3d fe b9 12 3d 58 03 6a 3d 3f 71 3f 3d
       0.035717256 0.035821907 0.057132095 0.04673886
0002c0 51 d4 a1 3d b9 a7 1a 3e f9 f4 ae 3d 03 cb 70 3d
       0.07901824 0.15103044 0.085428186 0.058787357
0002d0 b5 ba 43 3d 72 1a 98 3d 8a 3a 6c 3d 06 e7 3a 3d
       0.04778548 0.07426919 0.057673015 0.045630477
0002e0 9e 02 89 3d 96 ee 13 3d ee 43 91 3d 26 f8 fe 3c
       0.06689952 0.036116205 0.07093035 0.031124186
0002f0 dd 3a 3a 3d 5e f5 26 3e ea fe a1 3d e3 79 29 3d
       0.045466293 0.16304538 0.07909949 0.041376006
000300 bb 74 a1 3d 0f 31 85 3d 4a f5 e0 3c be 9a b1 3b
       0.07883593 0.06503498 0.027460713 0.005420058
000310 8a 62 fd 3c a6 6a 25 3d dd f1 e1 3c 95 86 9a 3d
       0.030930776 0.04038491 0.02758115 0.07545201
000320 d9 c8 eb 3c c2 e3 ae 3d 21 04 52 3d 97 13 8f 3d
       0.028782295 0.08539535 0.05127347 0.06986158
000330 c6 d6 a7 3d ce 1a 02 3d 65 b7 db 3c 72 20 95 3d
       0.08195262 0.031763844 0.026820848 0.07281579
000340 d2 cc 08 3d a7 20 93 3c 36 3e 6b 3d 68 aa 85 3d
       0.033398457 0.017959906 0.057432376 0.06526643
000350 40 5f 14 3e dd a9 dc 3d fc 2d 88 3d cf 1f d2 bc
       0.1448946 0.10774586 0.06649396 -0.025649933
000360 7b 02 12 3d 61 57 3c 3d 2c 65 5d 3d b3 cc b2 3c
       0.035646897 0.04598177 0.054051563 0.021826124
000370 c6 fe 81 3d 3b 35 03 3d 81 58 c3 3d c5 f3 a4 3d
       0.06347422 0.032033186 0.09538365 0.08054308
000380 18 11 96 3d 0e c0 ce bc 7e 24 39 3d 53 19 be 3c
       0.07327479 -0.025238063 0.045200817 0.023205435
000390 dc b1 ad 3d 9b aa 13 3d 04 f2 4c 3d 86 c6 c4 3c
       0.084811896 0.036051374 0.05003549 0.024020445
0003a0 63 2f e3 3c 46 e0 ea 3d a2 5a 03 3e c4 82 b5 3d
       0.027732557 0.11468558 0.12827542 0.08862832
0003b0 1b f9 56 3d 14 26 de 3c 99 b1 a4 3d 12 3f 90 3d
       0.05248366 0.027117766 0.080416866 0.0704328
0003c0 e6 b9 e5 3c 52 f7 17 3d b8 dc 76 3d ba 18 86 3d
       0.028042745 0.037101097 0.060269088 0.06547685
0003d0 a2 94 8f 3d 02 42 ab 3d bf c4 dd 3c d3 d0 d6 3d
       0.07010771 0.08362199 0.027071355 0.10489049
0003e0 f1 20 e1 3d 63 3c 30 3d 85 0b 59 3d b6 d7 45 3d
       0.10992611 0.04302634 0.0529895 0.04830142
0003f0 8a f0 ff 3c 1d 1c a9 3d 1a 07 9f 3d d4 a4 34 3d
       0.031242628 0.08257315 0.077650264 0.044102505

fc3.bias f4 [4]
000000 27 b0 25 3e bd 8e cd 3c c0 0a 24 3e b7 d8 f0 3d
       0.16180478 0.025092477 0.16019726 0.11760085
