Data/checkpoint_critic.pth (torch_old, 87077 bytes, 5 tensors)

fcs1.weight f4 [128, 33]
000000 e0 fc 4b be ac a6 05 3f c8 a0 22 3e be c7 9a be
       -0.19920683 0.52207446 0.15881646 -0.30230516
000010 64 58 40 bf d1 9b 76 be dc ed a3 be 07 f8 80 3d
       -0.75134873 -0.24082877 -0.3201741 0.062973075
000020 9d 22 cd be e4 eb 20 3d b8 d1 43 be e4 d3 a6 3d
       -0.4006547 0.039287463 -0.1912297 0.08145884
000030 d0 8d 27 bc 3a dc 0e bf 4b 5f c1 bc 78 a4 6b 3f
       -0.010226682 -0.5580479 -0.02360501 0.92047834
000040 fd 7d c0 be d5 2b 08 bf ae e2 6b bb db 52 5d 3e
       -0.3759612 -0.5319188 -0.0035993266 0.21613638
000050 c1 f8 46 be 9d 0c f7 3d cc 2c b3 3d 2a 23 4a 3e
       -0.1943083 0.12062953 0.08748779 0.19739977
000060 e1 0e bc 3b b5 51 8f 3c 7a a6 51 3e 7d 10 ac 3f
       0.0057390784 0.017495016 0.20473662 1.3442532
000070 df f7 ec 3c 44 24 8b 3c 13 43 9e bf 1c 69 9d 3c
       0.028926788 0.016985066 -1.236422 0.01921516
000080 57 15 21 3f 8e 91 d5 bd d5 62 7d 3e d3 03 f2 be
       0.62923187 -0.10428153 0.24744733 -0.47268543
000090 48 60 46 bf a4 3e 58 be 2f a2 3f 3e 4d 7e a4 3d
       -0.77490664 -0.21117646 0.18714212 0.080319025
0000a0 a3 f2 8b 3b 06 43 71 3f 49 8e 8f bf ab 3d 8c 3e
       0.004270868 0.94242895 -1.1215297 0.273908
0000b0 3d d0 96 3e a8 3f 9f be e4 ec 82 3c 85 a2 e5 3d
       0.29455748 -0.31103253 0.015982099 0.11212639
0000c0 7d 5b 13 3e de 80 87 bd 09 54 1a 3e 88 72 3e 3e
       0.14390369 -0.06616376 0.1507112 0.18598378
0000d0 7e 77 0c be d0 ab 23 3e 88 dc b3 3d 7e 9f d0 bd
       -0.13717458 0.1598351 0.087822974 -0.10186671
0000e0 09 c4 05 bd 39 80 ca bd d2 5f 59 3e 58 f4 88 be
       -0.032657657 -0.09887738 0.21227959 -0.2674892
0000f0 78 72 e0 3f 2d f1 e0 be bf 49 a7 3d 14 1f e0 bf
       1.7534933 -0.43934003 0.08168363 -1.7509484
000100 e0 b8 43 bc 45 cc 48 bf a9 0c b9 bd 53 5a 33 3d
       -0.011945933 -0.7843669 -0.09035618 0.04378731
000110 c0 ab 81 3e 9e 8e 2b 3e 64 16 4f bf 03 f5 c7 3a
       0.25326347 0.16753623 -0.8089354 0.0015255514
000120 f5 6d 80 be e1 b4 8b 3b f9 9d 5b be 2e a1 45 3e
       -0.2508389 0.004263506 -0.2144698 0.19299766
000130 3d 1c a9 bd 32 ab 81 bc 91 13 ad 3c 0a b2 36 bf
       -0.08257339 -0.015828703 0.021127494 -0.71365416
000140 9e b7 e7 bd 3b cd 6a be 0d db f6 bc 4f 76 9e 3e
       -0.11314319 -0.22929852 -0.030133748 0.30949637
000150 88 4d f4 3d aa a7 cd bd 74 b7 ec 3d 32 f9 5b 3d
       0.119288504 -0.10041745 0.115584284 0.053704448
000160 27 59 12 be 79 e3 64 be 01 93 b2 bd c2 5e a3 3b
       -0.14291821 -0.22352399 -0.08719445 0.0049856612
000170 30 a6 f5 3e 75 64 3b 3f 02 a8 b5 be c9 8a b0 3d
       0.47978354 0.7320016 -0.35479742 0.08620221
000180 a5 12 38 bf b0 e1 4c bd d2 26 0e 40 34 48 c8 bc
       -0.7190345 -0.05001992 2.2211194 -0.024448492
000190 f3 45 2a be e1 5c b4 3c 48 47 c5 bd c9 26 be 3d
       -0.16628246 0.022016944 -0.096327364 0.092847414
0001a0 b6 58 cb bd 20 ab 1b be 70 5c 3f 3d 9a f1 62 bc
       -0.0992903 -0.15201998 0.046719015 -0.013851548
0001b0 e2 c3 5e 3e 5d 15 21 3d 87 9d 9f bd 40 cc cc bc
       0.21754411 0.039327014 -0.07793718 -0.024999738
0001c0 42 5c 86 3c ab 50 d9 3c 83 4d 43 bd 75 4b 2b bd
       0.016401414 0.026527723 -0.047681343 -0.04182001
0001d0 f1 e9 d8 3c 2b 0a 0d 3d 44 83 31 be 36 44 95 3d
       0.02647874 0.034433525 -0.1733523 0.07288401
0001e0 2c 51 8a bc ad be 2b 3d 3a 88 1f 3d 70 b1 98 bd
       -0.016884409 0.04192989 0.038948275 -0.074557185
0001f0 da 4b 8f 3d 39 8b 80 be 2c 5b 7b 3f d1 c3 04 bf
       0.069968894 -0.25106218 0.9818599 -0.5186129
000200 a6 cc ef bc 0f 37 84 bf 08 53 c9 bc 10 32 ea 40
       -0.029272389 -1.0329303 -0.024575725 7.318611
000210 6c 43 cd 3d 82 3b f4 3d 65 cb f9 3d 49 8b 84 3d
       0.10022625 0.11925413 0.121969976 0.06471879
000220 d1 f4 6f be 4e fc 2a 3c b7 75 29 bc a7 9c a9 bb
       -0.23433234 0.010436131 -0.010343007 -0.005176145
000230 4c 74 51 be 37 67 d6 3d 4c 5d 77 ba 30 da fb bc
       -0.2045452 0.104689054 -0.00094362046 -0.030743688
000240 ea 26 e8 bc 53 0e 7b bd 31 9f 0e be 43 fa 21 be
       -0.028338868 -0.061292958 -0.13927914 -0.15818124
000250 46 05 02 3d 76 dc 84 3d 54 86 c5 3c 8d 37 0b be
       0.03174331 0.06487362 0.024111904 -0.1359541
000260 99 94 47 bc 83 40 62 3c a7 20 b6 3c a6 8f d6 bc
       -0.012181425 0.013809326 0.022232367 -0.026191544
000270 d9 ac fb bc 14 41 8a bc ce dc 18 3e e4 b9 2b 3e
       -0.030722069 -0.016876735 0.1492798 0.1677013
000280 29 95 07 3f 81 5d 91 bd 02 83 fe bd 31 4d 8b 3d
       0.52961975 -0.070979126 -0.124273315 0.068018325
000290 a2 39 d1 c0 f7 88 03 bf 3b 80 eb be 67 b4 8d bd
       -6.5382853 -0.51380867 -0.4599627 -0.06919175
0002a0 1c 4d fb 3c 4c 73 81 be b7 40 7c be 2f bc 8a be
       0.030676417 -0.25283277 -0.24634062 -0.27096698
0002b0 d7 ca 31 3c 48 32 45 3e 19 0b c6 3d 61 cf b5 bc
       0.010851583 0.19257462 0.096700855 -0.022193613
0002c0 90 dd ad 3c 09 e3 35 3c a7 bb 99 3e 1a 6c 9a 3e
       0.021223813 0.011101493 0.3002598 0.301606
0002d0 d7 42 2a 3e 6d aa 75 be e3 0a 5d be 36 28 91 3e
       0.1662706 -0.23990794 -0.21586184 0.2835099
0002e0 87 35 86 3d 3c f3 8a 3d 5c d7 e7 bd d2 11 2f be
       0.06553178 0.067846745 -0.113203734 -0.17096642
0002f0 7d 34 8b 3e 14 6d 55 3d 6b c5 b9 3d 03 0a 8e 3e
       0.27188483 0.052105978 0.090708576 0.27742013
000300 da 46 9e 3f e2 7e fa be 1f e7 b1 bd c6 fe a6 bf
       1.2365372 -0.4892493 -0.08686661 -1.3046501
000310 58 a2 6a bd bb 94 46 c0 91 c5 4b 3d 00 d4 16 bc
       -0.05728373 -3.1028278 0.04974896 -0.009205818
000320 52 1c 92 bc f2 48 b9 bd 53 95 d7 3d c4 3a b0 bc
       -0.01783577 -0.09047116 0.10526528 -0.021512397
000330 35 ce c0 3d f4 9c 4c 3c 5b 70 3e bd a4 c2 fa 3c
       0.09414331 0.012488592 -0.04649387 0.03061039
000340 3d db 3d bc c0 1f a8 3a 04 53 eb bb 47 22 11 bd
       -0.011587915 0.0012826845 -0.007181527 -0.03543308
000350 2d fe 43 bb 4d fa ae 3b dd a8 6f 3d 68 3b cf 3d
       -0.002990614 0.005339897 0.05851065 0.10118753
000360 e8 c0 0c 3e 97 7f 63 3a 9c 60 b5 3b 67 3f 00 3b
       0.13745463 0.0008678375 0.0055351984 0.001956904
000370 d5 c3 7b 3c 6d 24 d0 bb 38 e3 f6 ba 64 3c c9 bc
       0.015366514 -0.0063519985 -0.0018836027 -0.02456493
000380 30 55 74 be 29 9b e4 3e a8 c2 b6 3d 11 10 95 bd
       -0.23860621 0.44649628 0.089238465 -0.07278455
000390 54 01 04 bf c4 3b dc bc 5b 46 0a c1 c4 58 91 3e
       -0.51564527 -0.026883967 -8.642177 0.28388035
0003a0 bc da 35 3f b9 51 f7 be ef 92 24 bd 60 3f ac 3e
       0.7103689 -0.48304537 -0.04017919 0.336421
0003b0 b0 7b 0a be a8 c3 80 be 9d 21 69 bd 3e 90 69 be
       -0.13523746 -0.25149274 -0.05691682 -0.2280893
0003c0 ea 49 0a bf 57 fb a0 3e 9c 20 e8 3e 10 f5 74 3c
       -0.54019034 0.31441757 0.4533738 0.014951006
0003d0 6e 25 2b be d4 65 55 3e d0 bc 11 3f a0 86 bb be
       -0.16713497 0.20839626 0.5692873 -0.36626148
0003e0 ee 9d f3 bd cd c4 ee bb 1f 71 2f bf 8f f8 e9 bd
       -0.11895357 -0.007286644 -0.68531984 -0.11424362
0003f0 4b 19 d4 3e d6 40 e4 be 55 be 45 3e d5 e0 c8 bc
       0.41425547 -0.44580716 0.19310887 -0.02452127

fcs1.bias f4 [128]
000000 29 1e b8 bf 73 86 da bf a8 fc 4a bf be e2 8f bf
       -1.4384204 -1.7072281 -0.7929177 -1.1241071
000010 fb 7d e2 bd 6e 61 9e bf ff b0 04 bf 8b 99 77 bf
       -0.11059185 -1.2373483 -0.51832575 -0.9671866
000020 b0 be 78 bf ce d6 32 bf 7c 84 9a be 33 0f 77 bf
       -0.97165966 -0.69859016 -0.30179203 -0.9650757
000030 41 56 2a bf 41 8c 4d bf d6 bb 87 bf 36 67 59 bf
       -0.66537863 -0.80292135 -1.0604198 -0.8492311
000040 38 28 1c bf c1 9d 9c bf 62 78 04 c0 1b bb 87 3c
       -0.6099887 -1.2235643 -2.0698476 0.016568711
000050 b1 f0 b8 bf 03 1d 40 bf 53 ab 26 bf 35 ff 23 bf
       -1.4448453 -0.7504427 -0.6510517 -0.6406129
000060 99 62 eb bf 6d 31 b1 bf 27 c7 4e bf cf e0 57 be
       -1.8389465 -1.3843209 -0.8077263 -0.21081851
000070 f2 69 27 bf 06 0b 01 c0 2c 51 49 bf e6 96 89 bf
       -0.65396035 -2.0162978 -0.78639483 -1.0749176
000080 ed 9a 03 c0 91 b2 c3 bf d0 85 8b bf d6 46 74 be
       -2.056331 -1.5288869 -1.0900211 -0.23855147
000090 f2 48 44 bf ff 9b bc bf c5 53 86 bf fc ff 11 c0
       -0.76673806 -1.4735106 -1.0494314 -2.281249
0000a0 c3 88 b1 bf 87 16 14 bf 80 fe 0f c0 7c 15 4d bf
       -1.3869861 -0.57846874 -2.2499084 -0.8011091
0000b0 f1 58 19 bf 4c d1 49 bf fc 22 f4 be 0f de aa be
       -0.5990134 -0.78834987 -0.4768294 -0.33372542
0000c0 db 65 02 be 9d 4a 52 bf 07 d9 17 be 32 5b be bf
       -0.12734167 -0.821451 -0.14828883 -1.4871581
0000d0 33 a9 48 bf 1f 42 86 bf 72 7c 09 bf d1 a0 ff be
       -0.7838318 -1.0488929 -0.53705513 -0.4992738
0000e0 5b ea a7 bf 15 10 69 bf cd d4 81 be 4e 28 82 bf
       -1.3118395 -0.91040164 -0.25357667 -1.016855
0000f0 8a ab 7d bf 07 24 b7 3d e7 5a bb bf b2 ed 84 bf
       -0.9908987 0.089424185 -1.4637116 -1.0385039
000100 06 c9 9c be 5c da e1 be 29 19 59 bf d3 47 86 bf
       -0.3062212 -0.44111907 -0.84804016 -1.0490669
000110 23 c3 b5 bf 92 d2 bc bf 1c 6b 7b bf 29 72 4c bf
       -1.4200176 -1.4751761 -0.9821031 -0.79861695
000120 ec 24 fd bf 6f 0d e2 be 11 28 6d bf fa 18 9b bf
       -1.9776893 -0.44150874 -0.9263926 -1.2116997
000130 6d 2d df bf 5b 37 5d bf 88 21 22 bf 9c a8 75 bf
       -1.7435738 -0.8641259 -0.63332415 -0.959604
000140 fb 39 0b c0 6b 43 8e bf 4c 26 5c bf 70 d8 58 3f
       -2.1754138 -1.1114324 -0.85995936 0.8470526
000150 4f ef a5 bf f4 e9 40 bf 44 ba 77 be 7f 6a 2c bf
       -1.2963656 -0.75356984 -0.24192148 -0.6735
000160 8b 27 b6 bf af ce 69 be 86 9a 21 bf 54 38 1c bf
       -1.4230818 -0.2283275 -0.6312641 -0.6102345
000170 c7 3d c4 bd d4 f7 15 c0 3c 8c 86 bf 87 31 15 bf
       -0.095820956 -2.3432512 -1.0511546 -0.582787
000180 e8 f1 2c bf 37 b7 03 bf 80 29 0a c0 42 14 83 bf
       -0.6755662 -0.5145144 -2.158783 -1.0240557
000190 16 08 0a bf 19 29 4d bf b0 54 29 bf 38 83 b0 3e
       -0.5391859 -0.80140835 -0.6614485 0.34475112
0001a0 e5 f1 1f bf 78 75 ad bf 75 f4 f9 be eb ed 50 bf
       -0.62478477 -1.3551474 -0.48819318 -0.81613034
0001b0 3b 8d 0e bf 40 25 23 bf 88 71 79 bf 83 f8 18 c0
       -0.5568425 -0.63728714 -0.9743886 -2.390168
0001c0 57 c1 81 bf 02 bd 1a bf a6 30 24 c0 e3 8d 91 bf
       -1.0137128 -0.60444653 -2.5654693 -1.1371425
0001d0 21 03 ba be b8 ea 57 be 96 3d aa bf 0c 7a 31 bf
       -0.36330512 -0.21085632 -1.3300045 -0.69326854
0001e0 10 be cf be ac cd e9 bf dc 83 26 c0 52 6f 5e be
       -0.40574694 -1.8265891 -2.601798 -0.21722153
0001f0 28 39 b2 bf c1 0c 3f bf 50 c9 78 bf 1c b1 04 c0
       -1.3923693 -0.74628836 -0.9718218 -2.07331

fc2.weight f4 [128, 132]
000000 11 74 06 3e 27 4e 6c bc d5 dd 8e 3e 47 4d 17 bf
       0.13130213 -0.01442293 0.2790362 -0.5910229
000010 f1 d0 5b bf a3 99 49 3e 19 4f 73 bd 04 ef c3 be
       -0.85865694 0.19687514 -0.059401605 -0.38268292
000020 f9 28 c4 be 48 b7 4e 3d bf 0e 0f 3d af d3 13 be
       -0.3831251 0.05046776 0.034926172 -0.1443622
000030 76 ae 1e bf 2d 6a 89 be 71 68 b8 be 28 61 16 be
       -0.61984956 -0.26838818 -0.36017182 -0.146855
000040 42 26 6f bd 7d de 57 bd 4d d8 9d bd d1 78 0c 3b
       -0.058386095 -0.052702416 -0.07707272 0.0021434317
000050 04 ee 93 be 30 55 4c be c9 a5 92 be 2f 7e c2 be
       -0.2889253 -0.19954371 -0.2864211 -0.37986895
000060 01 55 e6 be 0e 69 c6 3e 31 ea 95 3e 7d 74 19 3d
       -0.44986728 0.38752025 0.29280236 0.037464608
000070 4b e2 38 be 8b f5 1e be 4d ab 06 be 28 6d eb 3e
       -0.18055074 -0.15523355 -0.13151284 0.45981717
000080 fd 70 b8 be 68 ae a9 3e b7 fe 16 3f df ad 3d bf
       -0.36023703 0.33140874 0.58982414 -0.7409343
000090 38 50 9e bc 04 71 32 3c 91 4e 62 bf 63 cc 0a be
       -0.01932536 0.010891203 -0.8840113 -0.1355453
0000a0 65 86 ac be 25 da 2c be 12 3d 27 3c 05 e3 80 be
       -0.33696285 -0.1688009 0.010207431 -0.25173202
0000b0 7b 79 98 3d 72 4d dd 3e 9b fb 82 bd 30 4e 0c bf
       0.074450456 0.4322315 -0.06395646 -0.54806805
0000c0 a0 86 8e bf 0b a4 1c bf 67 8e 15 bf 84 ca 3b 3f
       -1.1134834 -0.6118781 -0.58420414 0.7335589
0000d0 49 dc f3 bd 72 ac 48 3f c2 4b ae 3d b5 0d 5c 3d
       -0.119072504 0.7838813 0.085105434 0.05372401
0000e0 13 53 34 bf f2 80 ec 3d 92 d9 41 3e d7 79 6e 3e
       -0.7043926 0.11548032 0.18930653 0.23288666
0000f0 8a fc f2 be 00 3c c7 bf 62 61 54 bf 3a 93 69 3e
       -0.47458297 -1.5565186 -0.82961094 0.22810069
000100 4b a6 18 bf 93 f3 04 bf 20 11 94 bc 86 ef bc be
       -0.5962874 -0.51934165 -0.018074572 -0.36901492
000110 2e 75 12 be a8 66 41 bd c5 24 a1 be 41 6e 21 3e
       -0.14302513 -0.04721704 -0.31473365 0.15764715
000120 9e cf 40 3e 34 82 81 be 92 3d b8 3c 70 4f c7 bd
       0.188292 -0.2529465 0.022490297 -0.097319484
000130 a0 5f 07 3e c0 c7 3b 3e 60 17 ec bc bd 93 e8 be
       0.13220072 0.18337917 -0.02881974 -0.45425215
000140 06 14 c5 3c 17 79 56 3e fb 39 5a be 18 94 bc 3d
       0.0240574 0.2094463 -0.2131118 0.09207934
000150 85 99 a9 3e c5 75 81 be c3 60 ca 3e 86 41 b1 3e
       0.3312494 -0.25285164 0.39526948 0.34620303
000160 cd 10 7f 3e 38 6b 0e bd 2e 85 1b be ae 7c b0 be
       0.24908753 -0.03477022 -0.15187523 -0.34470123
000170 ff 66 79 3e 6c f7 74 bc d7 cc 0f 3f 6b d0 1f be
       0.24355696 -0.014951568 0.56171936 -0.15606849
000180 b2 4b 47 be d9 e1 31 bd fc 43 fc be 8a 3c f5 be
       -0.19462469 -0.043428276 -0.49270618 -0.4789775
000190 00 c5 63 3e ac e8 78 3b 6e a8 39 be 6d 67 bf 3d
       0.22243118 0.003798048 -0.18130657 0.09345899
0001a0 5b f1 aa 3d 2b 83 44 be 3d 3f fb bb 0d ea 0a be
       0.08346816 -0.19190662 -0.0076674507 -0.13565846
0001b0 9c cf 3e 3e e9 12 85 bd b5 f6 b5 3e ac 86 21 3e
       0.18633884 -0.064977475 0.35539785 0.1577403
0001c0 92 f5 06 3e 05 56 b6 3d 90 58 03 bf 56 21 d7 bd
       0.13179615 0.08903126 -0.5130701 -0.10504405
0001d0 f2 72 cc 3d 20 9d 42 bc 59 54 ca bd f8 5c e9 3e
       0.099828616 -0.011878282 -0.09879369 0.45578742
0001e0 3f 15 cc 3d 81 66 cd be 41 ef 67 be 63 b9 be 3e
       0.0996499 -0.40117267 -0.22649862 0.37250814
0001f0 40 47 85 bd 47 f6 07 be 5f e5 c6 be e0 60 f9 be
       -0.065077305 -0.13277541 -0.3884687 -0.48706722
000200 77 66 69 be c5 30 22 be ee a9 27 be 77 0f 0c be
       -0.22792993 -0.15838917 -0.16373417 -0.13677774
000210 cd a4 4d 3e 73 23 c0 bc 6c 0e 2f bf 00 f8 1e 3e
       0.20082398 -0.023454404 -0.6838138 0.15524292
000220 34 64 40 be ec 0e b3 3e 60 cb 6c be 8c f6 21 3f
       -0.18788224 0.34972322 -0.23124456 0.63266826
000230 39 38 9c bd 4a df 41 be 2f d8 13 3f 2b d2 38 be
       -0.07627911 -0.18932834 0.57751745 -0.18048923
000240 60 11 ea be a9 70 93 be 55 62 85 be 6a 80 3e bf
       -0.4571638 -0.2879689 -0.26051584 -0.74414694
000250 1c 8e 54 be e5 3d cc 3d ac a7 28 3f 83 a6 07 be
       -0.20757335 0.09972743 0.65880847 -0.13247113
000260 3b a9 75 be d1 41 a7 3d ef 6c 45 3d 8c 61 17 3c
       -0.23990338 0.0816685 0.04819959 0.009239566
000270 00 e8 58 bd b6 73 cf 3d 90 01 72 be d0 48 a3 be
       -0.052955627 0.10129492 -0.23633409 -0.3189149
000280 a8 94 2f 3e 73 27 0f bc 9f 11 1e 3e 7d 73 3d 3e
       0.17146552 -0.008737433 0.1543641 0.18501087
000290 25 e9 f2 bd 6c fd 3b 3e 9c da 82 bd 7a 8c 56 be
       -0.11860875 0.18358392 -0.06389353 -0.20952025
0002a0 66 fd fe bd 75 d4 f9 be 1b 91 a0 3e c1 6b ee 3e
       -0.12450676 -0.48794904 0.31360707 0.46566585
0002b0 65 01 1f bd b2 0e 03 be 71 cf 82 3d 4a 4c 46 bf
       -0.03881969 -0.12798575 0.063872226 -0.7746016
0002c0 c2 e6 d0 be e8 32 4f be 7b ce a2 be 57 96 f8 be
       -0.40801054 -0.20234263 -0.31798157 -0.485522
0002d0 e5 23 c9 3d 86 2e 96 3e da d4 9b 3e 3c 16 2a be
       0.098212995 0.2933237 0.3043583 -0.16610044
0002e0 ac c1 ae be b9 e9 68 bd 8d 2a 8f bd 99 ec 60 3e
       -0.34132135 -0.05686352 -0.06990538 0.21965255
0002f0 17 83 27 3d b4 9e 25 bf 61 64 c1 be 5d ee 27 be
       0.0408965 -0.64695287 -0.37771896 -0.16399522
000300 e9 89 c2 bc 25 90 25 3e 04 fc 52 bf 65 c2 36 be
       -0.023747401 0.16168268 -0.82415795 -0.17847593
000310 1d 4f 19 bd 5b 19 eb be 2c f3 55 be 01 ac 97 bd
       -0.037428964 -0.45917782 -0.20893544 -0.07405854
000320 c6 38 c2 bd 3f ba 8d 3e 1b e5 53 bf 56 cb cf 3d
       -0.09483485 0.27681157 -0.8277146 0.10146205
000330 5e 36 f4 3e 1c ef cc be 53 0c c5 bd 33 50 b0 3e
       0.4769773 -0.40026176 -0.09621491 0.34436187
000340 75 ea aa bf ae 3d 02 be 93 2a bc be 23 40 98 bf
       -1.3352801 -0.12718841 -0.36751232 -1.1894573
000350 31 67 7a 3e 7d 65 2d be 2a 3a 8e 3e 72 ac 28 bd
       0.24453427 -0.16933246 0.2777875 -0.04118008
000360 e9 a6 1b 3f 24 8b ed 3e a1 5e d8 be bd 54 df 3e
       0.6080156 0.46395218 -0.42259696 0.43619338
000370 92 7b 8c bf 94 24 3c 3e 6b 7d ea be 3e 8b e2 bd
       -1.0975211 0.18373328 -0.4579881 -0.110617146
000380 70 6f 9a 3e 45 7b 44 3f 59 85 53 3e 73 95 08 3e
       0.30163145 0.76750594 0.20656337 0.1333826
000390 24 bc 38 bf b2 16 49 be 46 c3 b4 3d df da 2d be
       -0.7216208 -0.19637564 0.08826308 -0.16978024
0003a0 d1 0f 41 bf 6e 09 b3 bd 9b d5 8c 3e 83 d4 80 3b
       -0.7541476 -0.08742033 0.27506718 0.0039315834
0003b0 25 33 82 3d b3 0f 93 3e ff d1 4b bd 2c da fb bc
       0.06357411 0.28722915 -0.049760815 -0.03074368
0003c0 b8 0d 2a bf 96 2e 3e 3d 80 90 1d bf 9e 19 96 3f
       -0.66427183 0.046431147 -0.61548615 1.1726568
0003d0 bc f9 40 be 76 39 b5 bd 6b 49 9f 3e e6 68 d1 be
       -0.18845266 -0.088488504 0.311107 -0.40900344
0003e0 7e 2d 5f bd 17 70 d9 bd cb 65 21 3e 19 3b 11 be
       -0.054486744 -0.106170826 0.15761487 -0.141827
0003f0 7d e3 76 bf d7 4d 7d 3d a4 3b 81 3f cf d5 c5 be
       -0.9644087 0.061841812 1.0096326 -0.38639686

fc2.bias f4 [128]
000000 86 07 55 3e d5 a9 4b bf 5c 49 00 bf 39 7e fe bd
       0.20803651 -0.7955602 -0.5011194 -0.12426419
000010 03 b8 83 bf 80 22 ac bf d6 e2 ca be c5 54 85 bf
       -1.0290531 -1.3448029 -0.39626187 -1.0416495
000020 51 e6 12 bf 67 4a b6 be 9f ee 2e bf 01 d0 7b be
       -0.57382685 -0.3560364 -0.68332857 -0.24591066
000030 1c 01 0c be f4 3b 4b bf a8 59 3d bf c1 80 86 be
       -0.13672298 -0.79388356 -0.7396493 -0.26270106
000040 f1 bf 07 3e 9a e1 30 be 2f d7 38 bf 60 72 e8 bd
       0.13256814 -0.1727356 -0.72203344 -0.1134994
000050 04 e3 2d 3e 28 10 63 3e 4e b4 de bd 68 9e 4a 3f
       0.16981131 0.22174132 -0.10874234 0.7914796
000060 62 4d 83 bf 79 76 a3 be 32 61 4b bf e6 f0 af 3d
       -1.025799 -0.31926325 -0.79445183 0.085908696
000070 bc 73 cd 3e d0 c5 57 be 61 89 07 be c4 fe 47 3f
       0.4012736 -0.21071553 -0.13236 0.78123116
000080 34 9d b0 be fb d1 38 bf fb 83 81 3e e3 45 eb be
       -0.34494936 -0.72195405 0.25296006 -0.45951757
000090 28 73 84 bf 3f d9 22 be 61 90 36 3f e5 07 13 bd
       -1.0347643 -0.15903185 0.71314055 -0.0358962
0000a0 e6 11 27 be d9 69 2a bf 55 5f c5 3f ff 3a 1a 3f
       -0.16315421 -0.6656776 1.5419718 0.6024627
0000b0 79 75 22 bf 17 98 c4 bd bd ea 24 bf a4 47 2a bf
       -0.634605 -0.09599321 -0.6442068 -0.66515565
0000c0 e2 e9 11 bf a0 fc ea be dd ef a4 be a6 f3 2e bf
       -0.569975 -0.45895863 -0.3221425 -0.6834053
0000d0 51 62 f7 be c8 7d 42 be b2 ee 3f bf 5a a5 3f bf
       -0.48317197 -0.18993294 -0.74973595 -0.7486168
0000e0 7f b9 b7 be 80 c9 68 bf 40 96 27 bf ed c2 48 3f
       -0.3588371 -0.90932465 -0.6546364 0.78422433
0000f0 ac e5 5d bd 81 f6 54 3e cd 13 3d 3d 72 1e 85 be
       -0.05417411 0.20797159 0.04616146 -0.2599979
000100 66 3c 4c 3f 83 21 eb bd 35 ff 14 bf 75 e1 29 bf
       0.7977966 -0.11481001 -0.58201915 -0.66359645
000110 f4 21 15 3e 3f 7d 3d bf 83 ff f3 be f0 60 e9 bc
       0.14563733 -0.74019235 -0.47655877 -0.028488606
000120 3c 21 16 bf 90 78 b7 3f 49 f9 d2 3e 2b 79 26 bf
       -0.5864446 1.4333668 0.41205814 -0.6502864
000130 ac c1 86 bc 9e 0c a2 be 75 7f 51 bf c7 43 04 bf
       -0.016449772 -0.3165025 -0.8183511 -0.5166592
000140 47 0b 4d be 2c 25 8c bd 99 53 d2 be ab af 59 bf
       -0.20023833 -0.068430275 -0.41079405 -0.85033673
000150 5c c1 29 bf 38 8b 35 bf aa 03 16 bf 3c 75 83 bf
       -0.6631067 -0.70915556 -0.5859934 -1.0270152
000160 1a cb d6 bd 3c 12 d6 3f 6c f1 1b 3e 98 a1 00 bf
       -0.10487957 1.6724315 0.15228814 -0.5024657
000170 ab 2b cf be f6 3f dd bd 78 34 1e bf ac 18 0f bf
       -0.40463004 -0.10803215 -0.6179881 -0.5589702
000180 b8 1a 3d be 6f 4d f2 be 1a 39 36 bf 37 25 0d be
       -0.18467224 -0.47324702 -0.7118088 -0.13783728
000190 5e c8 d6 be ed 12 30 bf 0a bf e7 3f 34 60 f7 be
       -0.41949743 -0.6877888 1.8105175 -0.48315585
0001a0 a0 65 ed be ee b5 0f 3f 52 72 83 be 49 42 45 bf
       -0.46366596 0.5613698 -0.25673157 -0.7705427
0001b0 71 0f 8c bf e1 88 60 bf 78 38 b0 be 15 ba 32 bf
       -1.0942212 -0.8770886 -0.34418082 -0.6981519
0001c0 ee e9 cd bd c6 ae 17 bf bf 25 19 bf 5c 74 74 be
       -0.10054384 -0.5925106 -0.5982322 -0.23872513
0001d0 ec 57 02 3e 1a 98 cd be 47 20 d3 be 3a 48 db be
       0.12728852 -0.40155107 -0.41235563 -0.42828542
0001e0 e5 31 12 bf 6c e7 65 bf 41 58 9a 3c c5 b7 21 bf
       -0.57107383 -0.89806247 0.01884091 -0.63171035
0001f0 b1 fc 31 bf d5 53 a5 3e ef 7e c7 be c2 5d 0e bf
       -0.695262 0.3229052 -0.3896403 -0.55611813

fc3.weight f4 [1, 128]
000000 e3 50 5a 3c 2f 4e 29 3d 7c 3c 1d bd ed eb 82 3c
       0.013324949 0.041334327 -0.03838776 0.015981639
000010 7b b2 5d bb e3 6b 3e 3c ac ff 04 3d 09 bf ba bc
       -0.0033828306 0.011622402 0.03247039 -0.02279617
000020 51 71 f0 bc 24 f7 1b bd c2 c5 37 3c e8 9a b8 3d
       -0.029350908 -0.03807749 0.011216583 0.09013921
000030 88 80 12 3d 9f 19 bc bc e5 56 65 bc 33 5c 88 bb
       0.03576711 -0.022961436 -0.013997768 -0.0041613816
000040 15 a1 d5 3c 9c 63 88 bc 19 20 ad bc cb 75 c1 3e
       0.026077786 -0.01664906 -0.02113347 0.3778518
000050 e1 a4 d7 3c 1d 1a 05 3d 91 42 9d bc 7c 71 39 3c
       0.026323738 0.032495607 -0.01919678 0.011318561
000060 9b f5 77 3c e3 2b dc 3c 28 51 51 3c 29 32 9d 3c
       0.0151342405 0.026876396 0.012775697 0.019188957
000070 06 42 4c 3d 96 37 96 3c 2f a5 b7 bc f0 5c 34 3d
       0.049867652 0.018337052 -0.022417633 0.044033945
000080 44 d0 3b bd fa bb 46 bc 89 43 ec 3c 30 bf 61 3c
       -0.045852914 -0.012129778 0.028840797 0.013778493
000090 d2 f2 89 bc b3 aa 9a 3c 51 98 7f 3c b2 30 71 bc
       -0.016839419 0.018880224 0.01560028 -0.0147210825
0000a0 9e ad 94 3c b9 bf 50 3c 1a 9e b7 3d 5d 3c 4d 39
       0.018149193 0.012741023 0.08965702 0.0001957281
0000b0 ad e8 93 bc 05 39 7a 3c e7 93 47 bc 32 d5 f8 3c
       -0.018055284 0.015272384 -0.012181259 0.030375097
0000c0 1c 21 b4 bc 3c c9 20 bd 39 9c 35 bc 0b 03 a3 bc
       -0.021988444 -0.039254412 -0.01108461 -0.019898912
0000d0 df b0 f7 3c 41 41 13 3c d5 37 82 bc e1 cd 4b bb
       0.030235706 0.008987726 -0.015895763 -0.0031098055
0000e0 09 ce b5 bc fb 4f a8 bc 92 0a 08 bd 08 11 62 3d
       -0.022192972 -0.02054595 -0.033213206 0.055192024
0000f0 93 1e 11 3d 19 2f ac 3c eb 35 31 3c 65 52 7c 3c
       0.03542955 0.021018552 0.010816078 0.015400504
000100 1b cf 15 3d b5 ea 55 3c 99 6e c0 bc 14 3a 0b bd
       0.036574464 0.013056447 -0.023490237 -0.033990934
000110 c0 21 e9 3c 9f a4 34 bd 10 35 80 bc 45 d5 1c 3d
       0.028458476 -0.044102307 -0.015650302 0.038289327
000120 71 83 d0 bc 05 98 f3 3c f1 32 cd 3c 43 de 59 3c
       -0.025453301 0.029735574 0.025048705 0.01329762
000130 f9 ea f9 bc 21 c1 79 bb 61 f4 a4 bc 16 90 9f bc
       -0.030507552 -0.0038109499 -0.02013606 -0.019477885
000140 07 ae a6 3d eb 69 11 bc d6 c0 c8 3b 0b 98 99 3b
       0.08138662 -0.0088753505 0.0061265035 0.0046873144
000150 92 43 8d bb 3b 35 74 bc 4e 82 47 bc 81 f3 17 3b
       -0.0043110335 -0.014905269 -0.012177063 0.002318591
000160 4f b4 ae 3c b6 4b 2a 3d e0 fe e2 bb 9d 5a 91 bc
       0.021326212 0.04157611 -0.006927356 -0.017743403
000170 b3 0a dc 3c 44 8b 07 bd 67 91 b6 bc 11 cd 26 bd
       0.02686057 -0.0330918 -0.02228613 -0.04072291
000180 3c 57 aa 3c 43 45 a4 3a 10 b7 17 bc 17 64 1d 3e
       0.02079355 0.0012532849 -0.009259954 0.15370212
000190 a0 6b e9 bb 75 b7 b0 bc 19 bb 80 3d 1d a9 91 bc
       -0.0071234256 -0.021571854 0.06285686 -0.017780835
0001a0 9a 7f d1 bc 58 e4 3c bd 50 25 a7 bc ad b6 a0 3b
       -0.02557354 -0.046116203 -0.020403534 0.004904589
0001b0 8c 4e 95 bc dc 76 00 3d 9d db 11 3d eb a2 de bc
       -0.01822593 0.031363353 0.03560983 -0.027177295
0001c0 29 4b 66 3c 3e 79 cf bc 4d 4f 14 bd 1f b3 bd 3e
       0.0140560055 -0.025326367 -0.03620844 0.3705072
0001d0 89 11 f6 3c f2 9e 19 3c df f7 4c bc 4d d4 1e bd
       0.030037658 0.009376274 -0.012510269 -0.038776685
0001e0 56 56 98 bc 86 9a 33 3c 74 3e 1d bd 22 42 a4 3c
       -0.018595856 0.010962134 -0.038389638 0.020051066
0001f0 03 da 2d bc 82 77 d1 3c 9f fd 53 bc ee 1f 12 bd
       -0.01061106 0.025569681 -0.012938886 -0.03567498
